weights/best_model_b_real.pth (torch, 43759 bytes, 61 tensors)

pi_prior_zc f4 [2]
000000 e5 e4 d8 3f c5 43 7f 3f
       1.6944853 0.99712783

mu_prior_zc f4 [2, 2]
000000 a1 bd d3 c1 b1 16 e1 c1 61 5f 41 c0 3c 01 4c c0
       -26.467592 -28.13608 -3.0214465 -3.1875753

log_var_prior_zc f4 [2, 2]
000000 c8 43 a4 40 32 85 a3 40 37 6d d4 3f ec b4 d3 3f
       5.133274 5.110009 1.659583 1.6539588

enc_zc1.weight f4 [20, 6]
000000 33 2b c2 bb 2f 41 5b 3d 25 9c 38 bb eb 4b 8a bc
       -0.00592556 0.05352896 -0.0028169241 -0.016881904
000010 44 68 be 3b ee 02 ba bb 3a c3 4b bd 8f a1 8d 3e
       0.0058107693 -0.005676619 -0.04974673 0.27662322
000020 5b 81 de bc 8d 21 82 3c 8d 28 23 bd bb 74 8a 3e
       -0.02716129 0.015885139 -0.039833594 0.27042183
000030 1f 1b aa be ea 37 50 3d f4 80 2c be 5d 88 2d be
       -0.33223817 0.050834574 -0.16846067 -0.1694655
000040 55 48 f9 be 4e dd be 3d 87 02 03 bd 16 c0 8a bc
       -0.48687997 0.09319554 -0.031984832 -0.016937297
000050 e8 30 89 bc 12 67 50 bc 98 8e d4 bc be d3 16 bc
       -0.016746953 -0.012719886 -0.0259469 -0.009205757
000060 3f 51 01 bd ce 5f 76 3e 53 03 23 3d 77 59 83 3d
       -0.031571623 0.24059984 0.039798092 0.064135484
000070 c5 17 c9 3a 9f 0d 82 3e b3 85 fc bc 4b f4 db 3c
       0.0015342167 0.25401017 -0.030825472 0.026849886
000080 62 eb 3b 3c 04 c9 11 3a 2c f6 87 39 19 09 63 bd
       0.011469694 0.00055612647 0.0002593262 -0.055428598
000090 a0 12 f4 3d cc c2 fe 3d 0b 69 18 be b4 72 16 3e
       0.11917615 0.12439498 -0.1488382 0.14692193
0000a0 ad 61 3e 3d ce df 3c 3e 72 25 a0 3d b0 83 aa 3e
       0.04647987 0.1844475 0.07819642 0.33303595
0000b0 45 35 3e bd 78 24 11 3e 9b cb 96 3d 72 94 d3 3e
       -0.04643752 0.14174068 0.073630534 0.41324192
0000c0 34 e2 a4 be 28 34 66 3c c9 db 12 be 9b d0 81 bd
       -0.3220383 0.014050521 -0.14341654 -0.063386165
0000d0 3c 4f f4 be df 74 61 3d 2c 3f a7 be 24 c1 fb 3c
       -0.477167 0.055043098 -0.32665384 0.030731745
0000e0 17 1b 20 be fe d7 13 be ad 30 fa be ca 9c aa 3d
       -0.15635334 -0.14437863 -0.48865262 0.083306864
0000f0 c2 87 3e 3c 18 b4 8b bc 54 44 e9 3b e5 2b e0 bc
       0.011629047 -0.017053649 0.007118741 -0.02736468
000100 72 51 eb bc 3c f9 f8 bc 41 d6 99 be 73 c0 8d be
       -0.02872536 -0.030392282 -0.30046275 -0.2768589
000110 a7 d7 46 bd 07 55 5d bc 07 7a ba be 78 83 a0 be
       -0.048545506 -0.013509042 -0.36421224 -0.31350303
000120 9b 71 ac be 89 fe 15 3c 8c 2e 0c be c8 9e d3 bd
       -0.33680424 0.009154924 -0.13689631 -0.103330195
000130 b1 c5 eb be f1 0a 8a 3d 7b 35 9b be 20 f6 40 3d
       -0.46049264 0.06740368 -0.3031424 0.047109723
000140 37 db 1c be 2f 99 12 be 75 7a eb be 98 85 50 3d
       -0.15317999 -0.14316247 -0.45991865 0.050908655
000150 07 1b a3 be ba 86 bf 3c a0 f2 0a be 09 46 f5 bd
       -0.31856558 0.023379672 -0.13569117 -0.11976249
000160 90 fc 00 bf ee b3 ab 3d e1 c1 7f be ac 90 99 bd
       -0.5038538 0.08383928 -0.24976303 -0.07498297
000170 31 0d 0a be 7c 4d 2a bd cc be db be 64 0a 5c bd
       -0.13481595 -0.0415778 -0.42919004 -0.053720847
000180 89 c9 10 bd 6f ed c8 3c e1 7a 1f 3e 6e 12 a7 3d
       -0.03534845 0.02452728 0.15574218 0.08157812
000190 9d 85 2a 3d 69 23 9e 3d b9 20 65 be 3b 3d 9a be
       0.04163133 0.07721598 -0.22375764 -0.3012484
0001a0 e1 20 84 3d 83 e1 29 bd 99 19 9c be a6 a5 8e be
       0.06451584 -0.04147483 -0.3048828 -0.27860755
0001b0 e4 1f e4 3c de f6 9c 3e 43 33 ec bd 3c 49 b6 3e
       0.027847238 0.30657095 -0.11533215 0.35602748
0001c0 f7 b5 a8 3e e7 5a 94 3e e7 9b d3 bc 17 c3 df bc
       0.32951328 0.28975603 -0.025831176 -0.027314706
0001d0 7c 23 0d 3d 50 ae 91 3c 1f 74 79 bd 4e 06 72 3a
       0.03445767 0.017783314 -0.060901757 0.0009232507

enc_zc1.bias f4 [20]
000000 90 d2 7c be 99 9b aa 3e ad 97 54 3f e9 08 84 be
       -0.24689698 0.33321837 0.8304394 -0.25788048
000010 52 c9 bd 3e 37 62 67 be 1b 09 23 bf a9 90 a7 bc
       0.37067658 -0.2259606 -0.6368577 -0.020454722
000020 2f bd 33 3f a3 50 45 3f bd cf 81 be f7 cb c3 3e
       0.70210546 0.77076167 -0.25353804 0.3824155
000030 de f3 3a 3f ca f1 35 3f 68 b4 3d 3f 0d 5a 19 3f
       0.7302836 0.71072066 0.74103403 0.5990303
000040 65 98 d4 3e bc 45 e6 3e 10 c8 e3 bd 9b c1 bb be
       0.41522518 0.44975078 -0.11122143 -0.36671147

enc_zc2.weight f4 [20, 20]
000000 6b be 4f bc 2f bc 2a 3e 45 c7 c1 3e d0 17 ed bc
       -0.0126796765 0.16673349 0.37847343 -0.028942019
000010 17 98 ec 3d d9 fc 46 bc fd 0a 59 3e 1e 7f 5b 3e
       0.11552446 -0.0121452445 0.21195598 0.2143521
000020 85 e9 c2 3e 70 95 c2 3e 7b 53 fc 3b ff ba a5 3e
       0.38068786 0.38004637 0.0077003813 0.3236923
000030 2e be ca 3e cc 4f bd 3e 24 9a ad 3e 2a 4a 99 3e
       0.3959822 0.36974943 0.33906662 0.29939395
000040 62 aa 06 3d e1 b2 ae 3e f2 39 e9 be 74 77 0e 3c
       0.032877333 0.3412085 -0.4555202 0.008695472
000050 e7 ee ca 3c 85 a6 93 3e 21 69 b1 3e 37 b8 c1 ba
       0.02477212 0.28837982 0.3465052 -0.0014779632
000060 c9 a3 87 3e 06 7a 39 bc f6 47 89 3e 1c ae 67 3e
       0.26492146 -0.011320597 0.26812714 0.22625011
000070 ac ce 93 3e db b0 aa 3e 3c dc fe 3b 82 0f 79 3d
       0.28868616 0.33338055 0.007777719 0.060805805
000080 cb 0e 8a 3e c3 0c 97 3e 39 98 b5 3e 05 9c e2 3d
       0.2696441 0.29501924 0.354677 0.110649146
000090 88 9c 32 3e 1b 9f b7 3d 1b 5e d7 3d f7 31 fd bc
       0.17442524 0.08965894 0.10515996 -0.030907614
0000a0 97 a7 d7 3c 60 db 72 3c da 0a 05 bd 6b 02 ee bc
       0.02632503 0.014822811 -0.032481052 -0.029053887
0000b0 51 b8 02 bc 3e dd 2e bc c8 12 a2 3c 82 8c 5a bd
       -0.007978515 -0.010672865 0.019784346 -0.053356655
0000c0 6f 1c 80 bd b1 73 95 bc fe 7f 1d bd 5e 50 08 bc
       -0.06255423 -0.018243643 -0.03845214 -0.008319942
0000d0 a9 65 55 bc eb e4 ff bc 9f 11 fb bb 49 47 e0 bc
       -0.013024726 -0.031237086 -0.0076620127 -0.027377741
0000e0 ca 95 8c bd ea 20 d2 bc 57 ea 9d 3c 97 45 9e 3c
       -0.068645075 -0.02565046 0.019276781 0.019320292
0000f0 94 36 5e 3c 87 d8 05 bd 0d ff a3 3c 26 81 8e bb
       0.013562817 -0.0326772 0.020019079 -0.004348892
000100 69 6b 4e bb 53 7c ac b9 7b 8d dc bc da 16 1b 3a
       -0.0031497127 -0.00032899025 -0.026922932 0.0005916186
000110 fa b0 31 bd 74 62 6c bc e7 c7 8a bc d4 f6 86 3a
       -0.04338167 -0.01442777 -0.016941024 0.0010296949
000120 e8 df 29 3c 6e 25 b3 bc ec 30 25 bc e5 69 29 bb
       0.010368325 -0.021868434 -0.010082465 -0.0025850472
000130 ae cf 22 bd 26 7d 96 bc 17 e1 c1 3b 0f 70 85 3c
       -0.03974884 -0.018370222 0.0059167254 0.016288785
000140 96 49 0d 3d 00 cd a0 bb c5 bc 3e 3b e4 01 5b 3c
       0.034494005 -0.0049072504 0.0029104215 0.01336715
000150 5f 7a 1a bb d3 a9 d7 bb 69 58 f5 bb 7d 37 14 bb
       -0.0023571474 -0.006581524 -0.007487346 -0.0022616081
000160 9c 0d 95 bb 63 e2 92 3c fc f1 2d 3c 02 97 8d bc
       -0.0045487415 0.017930215 0.010616776 -0.01728392
000170 77 72 b6 bb eb a2 b7 3c 56 b5 98 bc e5 28 58 bc
       -0.0055678445 0.022416553 -0.018641155 -0.013193344
000180 ce b5 2d 3c 5d 9c 8f bc 80 2d cc 3a 12 5f 3b bd
       0.010602428 -0.017530615 0.0015577525 -0.045744963
000190 ba 82 06 bb a2 91 35 3e 91 eb bc 3e ae c8 ad bc
       -0.0020524696 0.17731336 0.36898473 -0.021213856
0001a0 51 d7 15 3e b4 a0 90 bc 73 81 79 3e bf 1c 52 3e
       0.14632918 -0.017654754 0.24365787 0.20518778
0001b0 69 92 c4 3e 0c 50 c6 3e 8e 8d ab bc 23 f1 97 3e
       0.38392952 0.38732946 -0.020941522 0.2967616
0001c0 a8 49 b4 3e d7 5a b9 3e 42 24 c6 3e 2d 0f 9c 3e
       0.35212445 0.36202118 0.38699538 0.30480328
0001d0 98 87 13 3c cb 33 a6 3e f0 14 d4 be cb a3 f3 3b
       0.009004496 0.3246139 -0.41422224 0.007435297
0001e0 06 86 bc bb 3b 83 8c bc 59 71 88 bc f7 23 de bb
       -0.0057532815 -0.01715242 -0.01665561 -0.0067791897
0001f0 c4 8f 84 bc 54 77 7a 3c 0f e4 f7 bc b3 8c ab 3c
       -0.016181834 0.015287239 -0.030260114 0.020941114
000200 73 32 04 bd d4 10 af 3c 1a 17 20 bc 46 a4 a8 bc
       -0.032274675 0.021370329 -0.009771133 -0.020586144
000210 50 75 da bc 3a cf 02 bc 3e 38 38 3d 09 4b 08 3c
       -0.026667267 -0.007983977 0.04497551 0.008318671
000220 57 4f 4a 3c b4 ae ee 3b b2 79 8d bc fb 4d 25 3c
       0.012348018 0.00728401 -0.017269943 0.010089393
000230 94 35 93 3b 1e 65 40 3e 61 a9 d4 3e d2 f3 80 3c
       0.004492471 0.18788573 0.41535476 0.015741263
000240 7c 06 00 3d 5e 4e c0 bb b3 91 34 3e fa c3 08 3e
       0.031256184 -0.005868717 0.17633705 0.13356009
000250 f7 b9 c4 3e 24 bf b3 3e 87 47 ee 3a 6d 4c 86 3e
       0.3842313 0.35106766 0.0018179276 0.26230183
000260 a1 ac b8 3e dc c1 be 3e 6e dd bb 3e 2a 11 88 3e
       0.36069205 0.37257278 0.36692375 0.26575595
000270 55 12 01 3b 8b d8 91 3e 34 75 97 be b7 21 00 bd
       0.0019694765 0.28485522 -0.29581606 -0.031282153
000280 a3 cc 83 3c 8b b6 89 3e a4 cc a7 3e ba a9 a2 3c
       0.01608879 0.26897082 0.32773316 0.019856323
000290 16 c7 78 3e 8a 09 11 3c ab b8 60 3e ce d1 90 3e
       0.24294695 0.008852372 0.21945445 0.28285068
0002a0 23 55 a0 3e 70 28 b0 3e a1 eb c6 bc de 42 d0 3d
       0.31314954 0.3440585 -0.024282278 0.10169004
0002b0 14 e4 91 3e 49 9a 92 3e 1d 4d b4 3e cd 1f ed 3d
       0.28494322 0.28633335 0.35215083 0.11578331
0002c0 52 b0 34 3e b0 c5 02 3e 8e f2 63 3d 78 c5 b0 3c
       0.17645386 0.12770724 0.05565124 0.021578535
0002d0 80 1a a7 bc 31 cc 40 3e 5b 15 c9 3e ea a0 9d 3c
       -0.020398378 0.18827893 0.39274105 0.019241769
0002e0 d3 f2 fb 3d 76 40 02 bd 15 41 7e 3e f6 59 59 3e
       0.123021744 -0.031799756 0.24829514 0.21225724
0002f0 b6 ea d1 3e 3e 89 b4 3e c7 3b f9 bc 66 3d 93 3e
       0.40999383 0.35260957 -0.030424012 0.2875778
000300 2d 0a b6 3e 1e 2f bf 3e 2f 72 bd 3e 39 d3 89 3e
       0.35554639 0.37340635 0.37001178 0.26918963
000310 96 ed 0a 3d 31 0b 90 3e a6 27 f7 be d8 83 68 bc
       0.033917986 0.28133538 -0.48272437 -0.01419159
000320 10 6f 55 3a f2 1b 3c 3e 65 50 ca 3e f8 06 31 3d
       0.0008141855 0.18370035 0.3951446 0.043219537
000330 c1 e9 c6 3d 02 0a e0 3b 8c 02 4d 3e 5d 20 18 3e
       0.09712554 0.0068371305 0.20020503 0.14856096
000340 99 84 be 3e ed ef c6 3e f7 b6 d0 bc 73 bf 88 3e
       0.3721054 0.38854924 -0.02547787 0.26708564
000350 7a 24 bc 3e 98 c0 e7 3e da 2f cc 3e d6 0a 8c 3e
       0.3674658 0.45264125 0.39880258 0.27352017
000360 00 74 b1 3b 99 a3 8f 3e 3b 7c 4c bd ca 33 73 b9
       0.0054154396 0.28054503 -0.049923163 -0.00023193579
000370 db 66 c1 3a e9 82 95 3c 09 d4 bd 3b a7 6e 0d 3c
       0.0014755385 0.0182509 0.005793099 0.008632339
000380 59 d4 08 bb 85 57 eb b9 3d d3 02 3c ea 15 fc bb
       -0.0020878522 -0.000448879 0.007984933 -0.007693042
000390 45 86 fc bc 6f 23 d9 bc 5e 2d ca bc 5d 44 f1 3b
       -0.030825743 -0.026506154 -0.024679836 0.007362886
0003a0 43 9f 6b bc d5 8d 4b 3b 8f fb 30 bc 0b c9 27 bc
       -0.014381233 0.003105988 -0.010802164 -0.0102408035
0003b0 c6 3e 95 3c bd bd 92 bc ff 19 0a bc 13 ed 97 bc
       0.01821841 -0.01791274 -0.0084290495 -0.018545663
0003c0 95 63 fd 3c d3 28 4a 3e fc 0f c4 3e 8b fa 15 bd
       0.030931273 0.19742136 0.38293445 -0.03661589
0003d0 c4 36 da 3d d0 73 f2 3b 55 c8 60 3e a2 8f 42 3e
       0.10654977 0.00739906 0.2195142 0.19000104
0003e0 19 e5 ba 3e 27 22 c1 3e 34 a9 6f 3d 4c fb 84 3e
       0.36502913 0.3772137 0.058510974 0.25972974
0003f0 48 48 bd 3e 5b 23 b1 3e 33 47 d2 3e 72 41 89 3e
       0.3696921 0.34597287 0.41069946 0.26807743

enc_zc2.bias f4 [20]
000000 ce 54 03 3f 94 c4 62 bd 11 48 11 be ee 96 bd bd
       0.51301277 -0.055363253 -0.14187647 -0.09257303
000010 b7 2e 04 be ae 5b e6 3e 29 59 23 be 07 11 08 3f
       -0.12908445 0.4499182 -0.1595198 0.5315098
000020 21 a2 9d 3d b9 aa e9 3e 61 12 55 3e a0 66 c9 bd
       0.07696939 0.45638064 0.20807792 -0.09834027
000030 84 a4 fd 3e 86 18 35 be 95 4a f2 bd ae ae 09 3f
       0.49539578 -0.17685136 -0.11830632 0.53782165
000040 83 b4 03 3f ec 6d 06 be cf 6d 0b be c2 e9 90 be
       0.51447314 -0.1312787 -0.13616107 -0.28303343

enc_zc3.weight f4 [20, 20]
000000 3d 6c 23 bd 21 62 a7 bc 8a 80 88 3c 77 43 d4 3b
       -0.039898146 -0.020432534 0.016662855 0.006477769
000010 1d 32 1c 3c f1 3c 52 bc dd eb 3e bc 45 05 12 3c
       0.009533432 -0.012831912 -0.011652914 0.008912389
000020 e1 dd 8e bb d6 28 bb bc 65 89 8b bc 6d 18 90 bc
       -0.004359946 -0.02284662 -0.017033288 -0.017589772
000030 22 12 7f bc bc e8 3b bc 72 d1 c7 bc 39 aa 17 bd
       -0.015568288 -0.011469062 -0.024391863 -0.03702757
000040 e5 cc 36 bc 80 7c a0 3b 12 36 41 bb 3c c8 ec 3c
       -0.011157249 0.004897654 -0.0029481691 0.028904073
000050 1e b5 8b bc e6 49 99 3c 97 bb a2 bc 39 dc 60 bc
       -0.017054137 0.018711995 -0.01986484 -0.01372438
000060 2f 31 55 bc 1b fb 38 3c 98 cd 48 3c dd 12 23 3d
       -0.013012215 0.011290337 0.012256049 0.03981291
000070 4f 1b ac ba 0e 42 2f bd a1 71 2e bb a0 1b 63 bc
       -0.0013130697 -0.042787604 -0.002661802 -0.013861567
000080 11 27 8a 3c 16 f1 a3 3b d0 27 21 3d 7b ee 6d bc
       0.016864331 0.005003105 0.03934461 -0.01452219
000090 52 fe c8 bc 64 94 82 3b 3c 47 f0 bc 59 2a 5c bc
       -0.024535332 0.0039849747 -0.029330842 -0.013437831
0000a0 21 23 80 3e 9e 38 89 3e e6 66 10 3a 94 dc 12 ba
       0.250268 0.26801008 0.0005508497 -0.0005602327
0000b0 54 26 17 bb fc da 8a 3e c2 32 81 3c c2 31 8e 3e
       -0.0023063617 0.27120197 0.015771274 0.27772337
0000c0 c9 ab 88 3e 74 65 93 3e a7 e8 6e 3e 6e b6 79 3c
       0.26693562 0.2878834 0.23330937 0.0152412485
0000d0 aa cf 93 3e d7 06 0c bd ea e9 de bb f3 3f 94 3e
       0.28869373 -0.03418621 -0.006802787 0.2895504
0000e0 93 4a 98 3e 15 72 6b 3c f3 25 71 bb f0 ca 74 bc
       0.29744396 0.014370461 -0.00367963 -0.014940962
0000f0 a7 94 a9 3a 4b d2 04 bc 3f 18 0a 3c e2 f0 bb 3b
       0.0012937979 -0.008106778 0.008428632 0.0057355026
000100 b7 ef ad 3b 44 20 4e 3a 93 13 49 3c fd 97 07 3d
       0.0053081173 0.00078630843 0.012272733 0.03310393
000110 e4 70 a7 39 ab 76 03 bc 33 7d 71 bd e6 71 fd bb
       0.00031936832 -0.008023898 -0.05895729 -0.007734525
000120 a4 dc b2 3b b5 1c eb 3b dc 00 09 3d 8e 8c 1b bd
       0.0054584313 0.007175053 0.033448085 -0.03797584
000130 d3 93 91 3b b6 d8 18 3c b7 57 2e bc 79 36 44 bd
       0.004442671 0.009329012 -0.01064103 -0.04790351
000140 3c e1 a1 3e 29 f2 58 3e 57 2d f2 bc 42 ac d2 bc
       0.31617153 0.21186127 -0.029562635 -0.025716905
000150 35 c0 46 bb f3 7a b6 3e a6 d5 60 3c cf 94 a1 3e
       -0.0030326967 0.35640678 0.013722813 0.31558844
000160 df a8 7e 3e f4 ae b1 3e 2c e7 b1 3e c2 a0 15 bd
       0.24869107 0.3470379 0.34746683 -0.036530264
000170 ce 78 a1 3e 23 cf 0a bb c7 79 40 3c a4 21 9c be
       0.3153748 -0.0021180592 0.011747784 -0.30494416
000180 f9 69 ae 3e 01 3c 8c 3b 84 7d c7 bc 76 ff ab bd
       0.34065226 0.004279614 -0.024351843 -0.08398335
000190 16 81 a8 3e 5b 89 76 3e 54 5a d0 3c e2 7e f2 3c
       0.32910985 0.24075834 0.025433697 0.029601518
0001a0 89 eb 8c 3c 8e 89 a1 3e 4c c6 fb bc ad c2 87 3e
       0.017202156 0.31550258 -0.030734204 0.26515713
0001b0 d9 e2 72 3e 82 36 a7 3e 91 34 a8 3e aa 62 62 bc
       0.23719348 0.32658774 0.32852605 -0.013817469
0001c0 62 88 a3 3e 39 d8 ec bc 17 12 ba 3c 34 9e 7b be
       0.3193999 -0.028911697 0.022713704 -0.24572068
0001d0 ee 4c 9d 3e a4 1a 5b 3c 8b de f8 3c b4 cb a1 bd
       0.30722755 0.013373051 0.030379554 -0.079001814
0001e0 25 79 77 3e da d2 84 3e 67 be bd bc 75 42 0c bd
       0.24167307 0.25942117 -0.02316208 -0.034243066
0001f0 bd 47 ca bc c5 d8 a1 3e 5f 43 9d 3c 1c f2 8a 3e
       -0.02469241 0.31610695 0.019197164 0.2713784
000200 30 4f 93 3e fc 7d a4 3e e2 28 a3 3e d3 4a 77 3a
       0.28771353 0.32127368 0.3186713 0.0009433452
000210 f8 7b 98 3e ee b5 a0 3b e5 7c 5f 3b 70 d7 f4 be
       0.2978208 0.0049045 0.0034101543 -0.47820616
000220 dd cc a0 3e 70 ba 28 3d aa c2 c3 bc 0a 17 ad bd
       0.31406298 0.041193426 -0.023896534 -0.0845166
000230 a1 46 d0 bc 9d 9e 43 bc 7f 80 0c bd 66 ca bb bb
       -0.025424303 -0.011939672 -0.03430223 -0.005730915
000240 4b 6c 88 bb 7d 29 bd 3b 54 91 d2 bc 54 ce b6 3b
       -0.0041633 0.005772768 -0.025704063 0.0055787954
000250 f0 8d fb 3a 19 ed aa 3c 3b a7 7b 3c 9b 45 b1 3c
       0.0019192081 0.02086501 0.015359695 0.021639636
000260 13 47 f9 bc c6 b9 92 bc 50 68 a1 3c 26 d9 ad 3b
       -0.030429399 -0.01791085 0.01970306 0.005305427
000270 8b a7 aa bc 4c e3 e9 bc 33 06 3d bb b4 7f 3c ba
       -0.020831844 -0.028550766 -0.0028842806 -0.000719066
000280 04 bc bb 3e 01 f8 39 3e 1e eb e1 3c 43 30 8d 3c
       0.36666882 0.18161012 0.027577933 0.017234927
000290 3c 16 60 3a 13 fb a4 3e c0 c9 83 bc a3 cf a9 3e
       0.0008548235 0.32222804 -0.016087413 0.33166227
0002a0 bc a1 6a 3e bf f0 b0 3e cb b0 b1 3e dd c5 20 bc
       0.2291326 0.34558675 0.34705195 -0.009812799
0002b0 2e a7 b1 3e 64 68 97 3c 2c 18 7c 3b e1 05 25 bd
       0.3469786 0.018482395 0.0038466556 -0.04028881
0002c0 51 0f bc 3e eb 87 ad 3c 58 80 16 3d 91 10 d7 bd
       0.36730435 0.021182975 0.036743492 -0.10501207
0002d0 5f fd 89 bc e9 7e 3d bc 4e ed 64 3c 48 78 85 3c
       -0.01684445 -0.011565902 0.0139725935 0.016292706
0002e0 9e 95 42 bd 4a 80 f4 3c 0a 93 be 3b 9c 23 05 bd
       -0.047505967 0.02984633 0.0058158683 -0.032504663
0002f0 db 28 07 bc 3b ff 55 bb 3a 0a d5 3b 17 d4 3c bc
       -0.008249487 -0.003265335 0.0065014632 -0.0115251755
000300 db f4 9e bb f9 96 ce 3b fe 60 75 3b c4 f0 88 bc
       -0.0048509664 0.0063046184 0.0037441845 -0.016716368
000310 ff 94 29 bd 13 02 61 3c 5c 1b eb 3c 27 e0 18 bc
       -0.04140186 0.013733405 0.02869957 -0.009330786
000320 f3 e0 c4 3e dc 99 5c 3e 27 53 9a 3c 84 62 17 3b
       0.38452873 0.21543068 0.018838478 0.0023099491
000330 89 61 9c b9 4b cf b5 3e c5 4a b9 bc b1 ee ba 3e
       -0.00029827308 0.35509714 -0.02261866 0.36510232
000340 f3 e9 79 3e 5f b0 b8 3e a7 6e bd 3e dd 36 a2 3b
       0.24405651 0.3607206 0.36998484 0.004950388
000350 cd 84 ba 3e 21 72 c0 bc 36 3b 98 3b ed 25 eb bd
       0.36429444 -0.02349192 0.0046457304 -0.11481843
000360 2b 30 b4 3e 98 f6 bf 3c b7 7c 2b 3c 13 8c 85 bd
       0.35193 0.023433015 0.010466746 -0.06520858
000370 30 6b e4 bc de 55 b2 bb 50 34 7d 3c c1 bb 4f bc
       -0.027883142 -0.005442365 0.015454367 -0.012679041
000380 8c 8f e8 ba 82 bf 2a bd 93 df 6d 3c 57 b8 a6 bc
       -0.0017742976 -0.041686542 0.014518636 -0.020351572
000390 6a 13 14 bd 3a ae 0a bc 0b 04 2c ba bb c0 bb 3b
       -0.036151327 -0.00846439 -0.0006561882 0.0057297624
0003a0 64 3f d7 bb a1 e4 95 bb 98 e6 4d 3b 49 89 c3 bc
       -0.006568836 -0.004574374 0.0031417962 -0.023869174
0003b0 04 52 d0 bb eb ba bb 3b ff 34 15 bb fb 25 db 3b
       -0.0063574333 0.0057290695 -0.0022767184 0.0066878772
0003c0 9b 0d 4c bb c7 dd 29 bc c3 30 e9 bb ab a7 70 bc
       -0.003113604 -0.010367817 -0.0071164086 -0.014688413
0003d0 af 10 e5 bb f3 1f 03 bc ad 38 c1 3a 00 ec cd 3b
       -0.006990514 -0.008003223 0.0014741622 0.006284237
0003e0 5d dc 15 bc 5e 90 03 bd 34 30 96 3c 53 a1 98 bc
       -0.009146777 -0.0321201 0.018333532 -0.018631613
0003f0 74 a0 0d bd 74 da 25 3c 7a 9c 95 3c a1 f9 c8 3a
       -0.03457685 0.010122884 0.01826309 0.0015333184

enc_zc3.bias f4 [20]
000000 69 c8 4d bd 77 53 4d be c7 e8 53 be c3 8d 78 be
       -0.050239954 -0.2005137 -0.20694266 -0.24272828
000010 86 59 d7 3c 69 73 ac bc fd cc 93 be 78 0c 66 bd
       0.026287805 -0.021051126 -0.2886733 -0.056164235
000020 6f 75 be 3e ce 46 a1 bd fd 45 81 3e 5a 79 ee bb
       0.3719897 -0.07874833 0.2524871 -0.00727765
000030 33 6c d7 bd c5 ed ab 3e 97 c0 87 bd 70 96 51 be
       -0.10518684 0.3357984 -0.066285305 -0.20467544
000040 0f e1 c0 3e 50 ae e1 bc 95 50 a3 be 68 ac b8 3e
       0.37671706 -0.027548939 -0.31897417 0.36069036

mu_zc.weight f4 [2, 20]
000000 60 54 18 3c 57 89 1d 3b 8e c8 c9 bd b3 ae bb 3c
       0.00929746 0.002403816 -0.09852706 0.022910452
000010 1a 47 8c be 90 36 99 be f2 25 8e be 63 7c 8c ba
       -0.27397996 -0.2992444 -0.27763325 -0.0010718222
000020 e8 9f 90 be 00 f2 04 bd 2d ac 9d be 22 31 93 3c
       -0.28247 -0.03245735 -0.30795422 0.017967764
000030 2d 3b 0a bb 99 98 88 be ea dc c0 3c 88 d4 8d 39
       -0.00210924 -0.26678923 0.02354284 0.00027051964
000040 73 4d a5 be d9 67 8c 3d ff 5e 8d be 54 7d 93 be
       -0.32285652 0.06855745 -0.2761154 -0.28806555
000050 a2 17 15 3c 9b 98 72 bb a3 8d 10 be d6 1e a3 3c
       0.009099873 -0.003701723 -0.1411653 0.019912165
000060 ad b7 b4 be 49 44 94 be 5b 1a 9a be 54 05 bf 3b
       -0.35296384 -0.28958347 -0.30098233 0.0058294926
000070 f0 7d b0 be 05 02 d9 3c 97 8d ae be 66 3f 42 3b
       -0.34471083 0.02649022 -0.340924 0.002963984
000080 d2 15 2e bc 1f ab 5b be 5a de 53 bc 4e 58 de bc
       -0.01062532 -0.21451996 -0.012931431 -0.027141716
000090 b0 e9 ac be a4 aa 1d 3d ec 36 9a be a9 f0 a6 be
       -0.3377204 0.038492814 -0.30120027 -0.32605484

mu_zc.bias f4 [2]
000000 f3 a0 e8 3d 84 66 04 3e
       0.113588236 0.12929732

log_var_zc.weight f4 [2, 20]
000000 2b c0 f7 3c 21 27 01 be 2a b2 f9 3d ff 40 00 3d
       0.030243 -0.12612583 0.12192185 0.031311985
000010 80 8d fc bd 62 a1 c4 bd 8b 69 60 bd bb a1 4a be
       -0.123316765 -0.09601094 -0.054788154 -0.19788258
000020 ef b9 90 bc ea 21 ad bd 52 e5 44 3e ab 63 db 3d
       -0.017666785 -0.08453734 0.19228104 0.107123695
000030 a0 d9 2b be cd 5a 1a 3d e6 b3 59 3d f7 b0 69 bd
       -0.16782236 0.03768425 0.05315008 -0.057053532
000040 02 a3 fc 3d 92 3e 4f bc c5 b3 0f be 66 34 82 3e
       0.12335779 -0.012649195 -0.1403342 0.25430602
000050 55 fd 24 be 95 19 cb bd fa 00 8f 3c 73 f2 8b 3d
       -0.16112264 -0.09916989 0.01745652 0.06833353
000060 7f 2b ae 3d b2 3d 91 3d c9 78 32 be 66 59 3a be
       0.0850439 0.070918456 -0.17428888 -0.18198165
000070 82 b0 53 3e 20 52 3e be 53 94 4d bd 43 ee 06 3e
       0.20672801 -0.18586016 -0.05019028 0.13176827
000080 a2 30 2e 3e a9 bd 2d 3e 8b a4 a7 bd 55 df b3 3d
       0.1701074 0.16966881 -0.08185681 0.087828316
000090 6e f3 ea 3d 20 31 16 be e2 80 18 be 7e 50 0e 3d
       0.11472212 -0.14667177 -0.14892915 0.034744732

log_var_zc.bias f4 [2]
000000 05 56 0f 3f c2 e6 bb 3e
       0.5599063 0.36699492

enc_zt1.weight f4 [20, 6]
000000 f1 e5 e0 bd 67 34 67 bd f3 45 74 3d c9 95 03 be
       -0.10981358 -0.05644646 0.05963702 -0.12850107
000010 b0 31 d1 bd d3 1f 80 bc 5f b9 c2 be c7 9d 13 3e
       -0.10214555 -0.015640175 -0.38032052 0.14415656
000020 a7 b5 9f bd 8e 8b de bd 4b 3c b8 be 86 f1 3d 3e
       -0.07798319 -0.10866462 -0.359835 0.18549165
000030 a4 2e e0 bb 0b b5 2a bd d9 64 25 3d 77 db 80 3b
       -0.0068414975 -0.041676562 0.04037938 0.0039324122
000040 57 03 8a 3b 38 ae 86 3b 95 85 d5 3d c6 6f d1 3c
       0.004211824 0.004110124 0.104258694 0.025565993
000050 7b 9d ce bc eb 0a ae 3e f4 6a bc 3e ab 52 80 3d
       -0.025221577 0.33992705 0.3680035 0.06265768
000060 96 7a af 3a 4b df 8b 3c de a6 c3 bc 2f 32 ab bb
       0.0013387974 0.017074248 -0.02388328 -0.005224488
000070 49 71 26 3a 3d 6d 1b bd 8f 43 78 3d df 56 4f be
       0.0006349278 -0.037945975 0.060611304 -0.20247982
000080 d8 99 7b 3b 21 f4 71 bd bd b7 5e bd f4 ad 29 be
       0.0038391259 -0.05907071 -0.054374445 -0.16570264
000090 81 51 05 3c ec ac d0 3d 66 bd 89 ba db 5e fb 3d
       0.008137108 0.10189232 -0.0010508716 0.122739516
0000a0 3a 82 3c 3d ea f2 c2 3d 47 3c d8 3c 93 38 5b be
       0.04602263 0.095189884 0.02639593 -0.214083
0000b0 a4 b4 b7 3c ae e7 85 bd 3c 65 a6 bd 44 dc 5a be
       0.022425003 -0.0653833 -0.08124778 -0.21373087
0000c0 95 c8 aa 3c 4b bb 6a be 20 10 7b 3c 9b 78 8f bd
       0.020847598 -0.22923009 0.015323669 -0.070054255
0000d0 a2 0c aa bd d5 00 5c be 04 8a 62 3d 6c 09 bb be
       -0.08303191 -0.21484692 0.055307403 -0.36530626
0000e0 60 c3 c8 3c 7b bb 00 be 98 11 d2 bd 6c 14 c5 be
       0.024507225 -0.12571518 -0.10257262 -0.38492143
0000f0 c4 02 20 3e e6 32 08 be 2e dd 26 bb 85 a3 81 3e
       0.15626055 -0.13300666 -0.0025461423 0.25320068
000100 e2 89 16 3e 1a 35 03 be 6e f6 88 3d 98 f1 19 3e
       0.14701036 -0.12813225 0.06687628 0.15033567
000110 45 87 00 3d 91 1a 32 3e 0c e3 85 3e 48 98 1e 3e
       0.031379003 0.17392947 0.26149786 0.15487778
000120 61 b2 f7 3c c7 3b d4 bc ce 6f 4e bd 20 cd 74 bc
       0.030236425 -0.02590741 -0.050399594 -0.014941484
000130 1f 99 0c bc cf e3 59 3c 49 46 59 3d 8a e4 19 bf
       -0.008581429 0.013298943 0.053045545 -0.6011435
000140 62 94 5d 3d 2f 00 7f be 41 b2 9c bd 87 74 16 bf
       0.054096587 -0.24902414 -0.07651187 -0.58771557
000150 f0 e6 ad bd 70 be 77 be c5 52 eb 3d 4a 34 74 bd
       -0.084913135 -0.2419374 0.114903964 -0.05962018
000160 08 42 32 3d 40 30 5a be 95 f4 49 bd 2d 01 84 3d
       0.043520004 -0.21307468 -0.049305517 0.06445537
000170 e3 a8 5d bb f9 c9 6d 3d 50 83 31 ba b0 fc 94 3d
       -0.0033822588 0.058053944 -0.0006771581 0.07274759
000180 12 b9 ee 3d 79 6e 94 3e ee 55 56 be 02 99 02 3f
       0.11656393 0.28990534 -0.20931217 0.5101472
000190 8b 00 01 3f 2a 63 9d 3e c4 86 3a bc bd 3f b3 bc
       0.50391454 0.3073972 -0.01138467 -0.021880979
0001a0 86 4d 00 3c 4c f3 ea bb 34 dd 6b 3c ea 5a b0 bc
       0.007830983 -0.0071701165 0.014396001 -0.021527726
0001b0 ed bd 25 3d d8 14 c2 be a4 f6 a7 3e 25 86 9e bd
       0.04046433 -0.37906528 0.3280536 -0.0774043
0001c0 3b cc 08 bd ca 36 cd be 46 00 df 3d f7 c1 82 3d
       -0.033397894 -0.40080863 0.10888724 0.06384652
0001d0 31 fc 04 3d 7d 3f 77 3e aa 81 83 3e d9 9b d0 3d
       0.03246707 0.24145313 0.25684863 0.101859756

enc_zt1.bias f4 [20]
000000 a3 84 c9 3e 9b 5f f1 3e a7 f0 9f be b4 8c 00 bd
       0.39359006 0.47143254 -0.3123829 -0.031384185
000010 90 63 51 be 47 73 5f 3f 08 45 0d 3f b8 72 36 3f
       -0.20448136 0.87285274 0.5518346 0.71268797
000020 53 0a 6e 3f 07 09 4c 3f 48 16 d7 be 7c 69 28 3e
       0.92984504 0.79701275 -0.42009187 0.16446489
000030 bb 6d 8f be f4 63 0c 3f 4b 78 85 3d 8b 1b 5b 3f
       -0.28013405 0.54840016 0.06517085 0.855889
000040 7b a1 57 be f3 ca cc be 6b 51 00 3e ed 53 bb 3d
       -0.21057694 -0.39998588 0.12531058 0.09146867

enc_zt2.weight f4 [20, 20]
000000 7f 33 9b bd 35 7d 1c bc db 2b 36 3c 30 ca 9b 3e
       -0.075781815 -0.009551336 0.011118854 0.30427694
000010 e5 6a 0f bc 60 cd dc 3d 3c 15 78 bd dd 8b f4 3c
       -0.008753513 0.1078136 -0.060567126 0.029851848
000020 65 a6 ee 3d dc ce 38 bd d4 24 9e 3e 83 60 5c 3e
       0.11652831 -0.04511915 0.30887473 0.21521191
000030 d9 df 42 bd 55 c1 85 bd f2 8d 74 bd 47 8b fb 3d
       -0.04757676 -0.06531016 -0.059705682 0.122824244
000040 3f 93 cb 3e 86 7a ce 3b 9f 49 aa 3c 67 72 7a 3e
       0.39760777 0.006301227 0.020787058 0.24457704
000050 29 2e 9b bd 66 d0 91 3c 23 05 87 3c 94 22 92 3e
       -0.07577164 0.017799567 0.016481942 0.28542006
000060 9f 56 55 3c 13 14 fa 3d 39 94 0a bd a0 72 b8 3c
       0.01302114 0.1221086 -0.033832762 0.022515595
000070 06 8d ce 3d 08 ec 4b bd 52 49 90 3e 9c 37 4f 3e
       0.10085492 -0.049785644 0.2818094 0.20236057
000080 86 ca 56 3c 02 61 61 bd 5e c7 0d be 4e 02 11 3e
       0.013109809 -0.055024154 -0.13845584 0.14161035
000090 4a 02 d6 3e e7 74 d4 3a c5 28 12 3d 0f 11 51 3e
       0.4179862 0.0016209156 0.035683412 0.20416664
0000a0 02 5d 6b bb 10 06 f0 bc 33 12 54 3b 2f d1 02 bd
       -0.0035913591 -0.029299766 0.003235948 -0.031937774
0000b0 61 99 38 bc 63 d8 1c 3b bc 70 64 3b bc 82 a1 b9
       -0.011267037 0.0023932687 0.0034857234 -0.00030805718
0000c0 cc 0c e1 bc 12 de 9f 3c f0 91 be 3c 1b c1 09 ba
       -0.027471922 0.019515071 0.023262948 -0.000525491
0000d0 ea 9d 72 bc 57 7f 3f bc 94 c8 e1 3a 81 31 7f b9
       -0.014808157 -0.011688075 0.0017225915 -0.00024337137
0000e0 6a a0 ba 3b 97 47 07 3d af 23 ef bc 4a 0e 0e bd
       0.0056953924 0.033027258 -0.02919182 -0.034681596
0000f0 88 8b b7 3d a4 a3 93 3d 99 55 6d bc ea 63 7f 3c
       0.0896216 0.07208946 -0.01448574 0.015587786
000100 b6 2c fa 3b cf 14 14 3e aa 7d e3 3d 64 eb 2e 3e
       0.0076347245 0.14461063 0.11107953 0.17081982
000110 58 f9 26 3e 28 5d a4 3d 38 4c ae bc 3e 01 c0 3d
       0.16306055 0.08025581 -0.021276578 0.09375237
000120 40 22 9d 3c a2 47 d9 3a 93 2d 2d 3d 39 6b 1c 3e
       0.01918137 0.0016577134 0.04227979 0.15275277
000130 5d 14 1a be e9 f5 28 3d 06 d1 b3 3d 39 03 1f 3d
       -0.1504683 0.041250143 0.087801024 0.038821433
000140 27 d6 fa 3c 09 9c ab 3c e2 d1 57 bc bf 43 aa bc
       0.030619694 0.020948427 -0.013172599 -0.020784257
000150 32 92 ba 3c ae 55 b5 bc 44 87 14 bd 72 8e b6 ba
       0.02277479 -0.022135582 -0.03626181 -0.001392795
000160 37 87 1d bc 25 b9 bd 3b af 65 fc bb 60 4a d9 bc
       -0.009614757 0.005789893 -0.0077025513 -0.026524723
000170 a9 30 2b bc be a4 76 3c a3 78 ef 3c 02 05 30 bd
       -0.010448613 0.015053926 0.029232329 -0.042973526
000180 78 28 83 bc 2a e2 c2 3c 21 86 5e bb 3a ec 10 bd
       -0.016010508 0.023789484 -0.0033954459 -0.035381533
000190 12 69 53 3e 56 eb 55 3e 3e d7 f0 3a ae 21 07 bd
       0.2064555 0.20890555 0.0018374694 -0.032991104
0001a0 f2 1e a3 3c c8 e3 8a 3e 74 65 76 3e 13 0b 7a 3e
       0.019912217 0.27126908 0.24062139 0.24418287
0001b0 cc d2 89 3e ef 7b 4c 3e 64 fa 1b 3e cd c0 8c 3b
       0.26918638 0.19969152 0.15232235 0.0042954446
0001c0 78 59 32 bc 44 a0 67 3e de bc 57 3e f1 d9 76 3e
       -0.010885589 0.2261973 0.21068141 0.24106576
0001d0 b1 e1 0a be 13 4a 10 bc dd 3f 18 3e 61 ee fa 3b
       -0.13562657 -0.008806723 0.14868112 0.0076578115
0001e0 08 5e bf bc 15 9f 9a bc a4 5e 0f bc ec d9 83 3e
       -0.023360267 -0.018874684 -0.008750591 0.257522
0001f0 67 ee 1d 3c ba b5 8c 3d 36 a9 bb bc fa 4a da 3c
       0.009639359 0.06870599 -0.022907835 0.02664708
000200 96 a8 8e 3d a1 ee 0f bd aa ce 9c 3e 27 a8 53 3e
       0.06965749 -0.035139684 0.30626422 0.20669614
000210 67 29 6e 3c 55 e7 c0 bc 1b 02 a4 bc 4c 76 8a 3d
       0.014536238 -0.023547808 -0.020020535 0.067608446
000220 4c 1e bb 3e 61 ca 7e bc 3e f1 18 3d 43 71 54 3e
       0.36546552 -0.015551181 0.03733944 0.20746331
000230 37 61 70 3e c2 be 6e 3e f8 7f b7 bb 4a 0f a1 bb
       0.23474585 0.23314956 -0.005599972 -0.0049151527
000240 bf c6 65 3b ca 73 83 3e df 35 87 3e a7 cd 88 3e
       0.003506109 0.25674278 0.26408288 0.267194
000250 4b fe 90 3e a4 b4 5b 3e e8 a3 09 3e a5 a2 a7 bc
       0.2831901 0.21455628 0.13441432 -0.020463297
000260 65 a3 9b 3c 57 20 4b 3e 9d 2b 5f 3e 61 12 90 3e
       0.018998811 0.19836555 0.21793981 0.28139022
000270 c4 ff 00 be 19 b2 82 3b 68 81 59 3e b4 fc aa ba
       -0.12597567 0.003988516 0.21240771 -0.0013045282
000280 a1 01 42 3e 7b b6 5c 3e 59 60 ab ba 98 d0 35 bd
       0.18945934 0.21553986 -0.0013074978 -0.044388384
000290 6c a6 77 bb 96 ab 8d 3e 5c 32 6e 3e de a7 67 3e
       -0.0037788404 0.27669972 0.23261398 0.2262263
0002a0 c2 e3 84 3e 73 d6 36 3e c1 b9 07 3e 26 f6 38 bc
       0.25955015 0.17855243 0.13254453 -0.011289155
0002b0 3f 9c 8d bc 25 d1 32 3e 4e f0 4d 3e f8 58 87 3e
       -0.017286418 0.17462595 0.201112 0.26435065
0002c0 11 e4 f7 bd b2 97 1f 3b a9 5f 27 3e 6c d1 d7 3c
       -0.12104047 0.0024351892 0.16345085 0.026344977
0002d0 18 42 66 3c 00 bb c4 bb 99 ab 64 3c b2 d1 7e bc
       0.014053844 -0.0060037374 0.013956928 -0.015552925
0002e0 04 aa 4a bc 17 c9 1d 3b dd 55 6c 3c 6a e6 8e 3c
       -0.012369636 0.0024076158 0.014424768 0.017443854
0002f0 33 90 bd 3a 46 f6 e2 3c b3 7a be bc 17 c6 93 3c
       0.001446253 0.027705323 -0.023251867 0.018038793
000300 7b c9 47 3d ae 84 60 bd d2 00 06 bd 21 18 30 bc
       0.04877613 -0.054814033 -0.032715626 -0.01074794
000310 26 da 09 bc 2c 18 66 3c 86 04 47 bc db 4b 42 bc
       -0.008413827 0.014043849 -0.012147075 -0.011858906
000320 bb 5c 45 3e 6e f4 3b 3e 4b 52 97 3c 7b 01 5b bc
       0.19273655 0.18354961 0.018471858 -0.013367052
000330 b9 a1 d6 bc db d0 72 3e cb e4 85 3e ec d3 41 3e
       -0.026200162 0.23712485 0.26151118 0.18928498
000340 73 7f 7c 3e e0 55 4e 3e ef 58 b0 3d 63 20 14 3b
       0.24657993 0.20149946 0.08610713 0.0022602312
000350 1e 3d 0e 3b 1c 5c 38 3e dd 84 35 3e 77 37 8c 3e
       0.002170391 0.18003887 0.17726465 0.27386066
000360 92 8b cf bd 21 0b 0b bd 86 09 43 3e 44 a2 a1 3c
       -0.10134043 -0.03394616 0.19046602 0.019730695
000370 3a 15 af 3d d0 fb 8c 3d a6 d8 ff bb 4f 9d 8d 3e
       0.085489705 0.06883967 -0.007807809 0.2765908
000380 fe 19 86 bc 5f 9e 2d 3e c1 d9 05 3e ea 9f 0a 3e
       -0.016369816 0.16954945 0.13071348 0.13537565
000390 28 51 54 3e e1 36 34 3d 9d 20 cd 3e dd 61 ad 3e
       0.20734084 0.04399765 0.40063944 0.33863726
0003a0 f7 2e 19 bd 91 70 2e bd 34 aa 72 bd c8 80 3f 3e
       -0.037398305 -0.04258782 -0.05924435 0.1870147
0003b0 93 68 31 bd ea 42 51 bd 3e f6 16 3c 93 a8 87 3e
       -0.04331262 -0.051089205 0.009213982 0.264958
0003c0 1e 5b fb b9 07 bd e9 3a 79 60 d0 3c 62 e2 91 3c
       -0.00047942338 0.0017832824 0.025436627 0.017808143
0003d0 e9 c6 f1 bb 37 66 52 bc ac a4 7d bb aa b1 2a 3c
       -0.0073784483 -0.012841753 -0.0038702888 0.010418335
0003e0 38 02 96 3c 4a ab 2b bc ca 9d 94 3b 4f cf 03 bc
       0.018311605 -0.01047785 0.0045354115 -0.008045032
0003f0 86 75 68 3c f7 2c 36 bd 10 f8 bf bc e4 f1 4c 3c
       0.014188176 -0.044476476 -0.023433715 0.012508843

enc_zt2.bias f4 [20]
000000 54 87 29 3e dc e1 31 3e 4d f4 53 be 48 91 13 3e
       0.1655553 0.17371315 -0.20698662 0.14410889
000010 ea bc e8 bd 0f 34 bd 3e 32 9c ff 3d f8 bb be 3e
       -0.113641575 0.3695378 0.12480964 0.37252784
000020 39 65 c5 3e b1 84 8f bd 56 c1 92 3e 77 61 b7 3e
       0.3855379 -0.07007731 0.2866313 0.35816547
000030 be 92 c7 bd 7e 09 fe bd 2a 9b 1a 3e 54 6c 51 3e
       -0.09744786 -0.12404154 0.15098253 0.2045148
000040 4d a9 4d bd 96 27 8e 3e ae 8b b1 3e c4 54 98 3e
       -0.050210286 0.27764577 0.3467688 0.2975217

enc_zt3.weight f4 [20, 20]
000000 d6 5f 16 3d b3 fc d3 bc 07 9b df bc 81 60 25 3b
       0.03671249 -0.025877332 -0.027295602 0.0025234523
000010 be d2 b8 3c 61 6d 7e bc 6d f0 11 bd 3e e2 dd bb
       0.022561427 -0.015529008 -0.03562968 -0.006771355
000020 44 e1 33 3b ed a7 36 ba 8a 52 f4 3c 47 46 06 bc
       0.0027447501 -0.0006967772 0.029824514 -0.008195466
000030 00 5d b8 3b 06 c8 98 bc 7d 2a 26 bc 76 12 00 bd
       0.005626321 -0.018650066 -0.010141966 -0.031267606
000040 e7 7a ee bb e7 b8 0d bc 51 e2 94 3c 19 0a 94 bc
       -0.0072778347 -0.008650041 0.018174322 -0.018071221
000050 5f 81 1f bd dc 44 42 bb 1c 80 bc 3b 3a 6c 23 bd
       -0.038941737 -0.0029643094 0.0057525765 -0.039898135
000060 2c f5 03 bc 7d 78 81 bc cf e5 53 bc 1c 8b 6b 3c
       -0.008054059 -0.015804524 -0.012933209 0.014376428
000070 f3 37 1a bc 94 b6 26 3d 8e 06 e6 3b 60 b7 89 bc
       -0.009412753 0.040701464 0.0070198243 -0.016811073
000080 b0 63 cd bb 69 7a 6e 3c b4 13 b2 bc 00 b7 39 bc
       -0.006267987 0.014555552 -0.02173791 -0.0113351345
000090 30 1d 02 bd 41 67 3c 3c 40 ef 7e 3c 2d 09 8b bc
       -0.031766117 0.011499227 0.015559971 -0.016972149
0000a0 81 ef 2c bc 08 66 82 3b f9 dd 36 3c 13 58 b2 bc
       -0.010555149 0.003979448 0.011161321 -0.021770513
0000b0 e2 87 31 bb 5e 2d eb bb 4e a3 91 bd 14 5e 00 bc
       -0.002708905 -0.007177039 -0.07111226 -0.00783493
0000c0 08 11 e8 bc e1 54 00 3c 91 12 29 bc aa 5c ef bc
       -0.028328434 0.007832737 -0.010319368 -0.02921899
0000d0 72 8b b7 3b f2 0d a6 bc 1a ef 7a bd 24 2a 56 bd
       0.00560134 -0.020270322 -0.06126318 -0.052286282
0000e0 4e d3 f2 39 4e 4c 84 3a fb ae 2f bd a7 77 e5 bb
       0.0004631527 0.0010093541 -0.042891484 -0.007002789
0000f0 9b 37 f1 bb 48 9d 0a be 62 55 d2 3c 13 a1 fb bb
       -0.007361365 -0.1353656 0.02567548 -0.0076791137
000100 12 cd c2 3c aa 61 bb 3e 14 9e 6a bc 27 d8 b6 3e
       0.023779426 0.3659795 -0.014319915 0.35711786
000110 44 81 c3 3e 64 fe 79 3e 68 23 9f 3d b2 e4 5e 3e
       0.3818456 0.24413449 0.07770425 0.21766928
000120 d8 7f fa 3c ee 5b 3c 3e 35 30 2d 3c a2 f6 85 bc
       0.030578539 0.18394443 0.0105705755 -0.016352955
000130 63 95 1a be ce 02 1d 3e 4e 97 e4 3e e0 f6 cb 3d
       -0.15096049 0.15333101 0.44646686 0.09959197
000140 c1 c7 b2 3e 43 85 07 3f 89 ee 1a bd 5d 7c 2b bf
       0.34918025 0.52937716 -0.03782514 -0.6698664
000150 07 08 f8 3c 67 a9 59 be 62 fa d1 3e 2e a9 5d be
       0.030277265 -0.21256028 0.4101134 -0.21646568
000160 ee 8a 3c be 9e 38 15 bd ed 66 c7 be f1 02 52 3e
       -0.18412372 -0.036430947 -0.38945714 0.20508935
000170 26 a7 ad bc 2b ae 49 bd 06 8b 02 3e 8b df e6 3e
       -0.021197867 -0.049238365 0.12748346 0.45092425
000180 07 56 87 3c 6f 93 a6 be 13 b5 9f 3b 9f ed f0 be
       0.016520513 -0.32534358 0.0048738807 -0.4705629
000190 4e 4a 31 3e c1 e9 ff 3c 57 94 cb bc b6 2d 2d 3c
       0.17313501 0.031239392 -0.024851007 0.01056998
0001a0 53 b0 5a bc 1f 9a ab 3e dd 54 c5 3d d2 33 b3 3e
       -0.013347703 0.33516023 0.09635327 0.35000473
0001b0 32 99 b2 3e e8 99 a1 3e 04 5f 65 bd 3b e5 ac 3b
       0.34882504 0.31562734 -0.055998817 0.00527635
0001c0 c2 51 96 3b a6 80 97 3e 3f 20 22 3e b3 ff 39 3e
       0.004587383 0.29590338 0.15832613 0.18163948
0001d0 0c c6 59 bd 01 60 02 3d 1d 9b cd 3e c1 d7 b6 3c
       -0.053167388 0.031829838 0.40157405 0.022319676
0001e0 99 93 81 bc c2 f8 3e be 80 03 a6 bb 53 32 fd 3c
       -0.01581745 -0.18649581 -0.005066335 0.030907786
0001f0 61 d4 16 bd c1 b8 cd 3e 39 60 f4 bc 65 79 dd 3e
       -0.036823634 0.4018002 -0.029831039 0.4325668
000200 c4 3b ca 3e 80 6b 7d 3e 53 7d 6a 3d 4b 0d 73 3e
       0.39498723 0.24748039 0.057248425 0.2373554
000210 cd 34 a9 3c 05 22 30 3e 46 bc 10 3d f2 51 be 3a
       0.02065506 0.17200477 0.0353358 0.0014520271
000220 7e ea 4d be 72 95 81 3e 03 2a f3 3e 66 c1 05 3e
       -0.20108983 0.2530933 0.4749299 0.13062057
000230 9a f7 1e 3e 97 18 87 3e 37 30 8a bb a6 6d 0d 3e
       0.1552414 0.26385948 -0.0042171734 0.13811359
000240 41 ff b4 bc 41 0f c7 bd a0 10 94 3e 27 a3 6a bd
       -0.02209437 -0.09719706 0.28918934 -0.0572845
000250 cf 0e 6f bd 4d 33 eb bd c7 86 78 3e 29 b9 66 3e
       -0.058363732 -0.11484394 0.24270163 0.2253157
000260 e7 ca 80 3c 56 12 e5 bd 32 31 29 3e 2d 32 58 3e
       0.015721751 -0.11185138 0.16522673 0.2111289
000270 7b 26 4e 3e 35 9f 78 bc 82 c9 c4 bd b9 e6 b2 3d
       0.20131867 -0.015174677 -0.09608747 0.08735413
000280 b9 1b da 3c 14 8c 23 be d7 1c 28 3c 2b af 09 bc
       0.026624547 -0.15971404 0.010260782 -0.00840358
000290 07 ed 92 bc ee 49 f3 3e c0 af 29 3d f1 d8 fb 3e
       -0.01793529 0.4751734 0.041427374 0.4918895
0002a0 be 1c d0 3e ee 14 87 3e 1d 09 ae 3c cf c9 5f 3e
       0.4064693 0.26383156 0.02124458 0.21854328
0002b0 4a f9 3e bc ea 62 62 3e f0 84 b4 3c a8 1b ee 3c
       -0.011656115 0.22108045 0.022036046 0.029065922
0002c0 50 60 2d be 2f 7a 77 3e 5b 11 05 3f 9b 92 91 3d
       -0.16931272 0.24167703 0.5197961 0.07108041
0002d0 ed 3f c7 bb 92 82 62 3a f3 f7 13 bd a0 fb 28 3c
       -0.0060806186 0.00086406723 -0.036125135 0.010313898
0002e0 8c 18 12 3d a3 c5 86 bc 7c 6d cd bb 0f 84 44 3c
       0.03566794 -0.016451662 -0.006269155 0.011994376
0002f0 51 18 ff bc 70 4c 5f 3d ff c5 89 bc fe 4e ae 3c
       -0.031139525 0.054516256 -0.016818045 0.0212779
000300 b8 e9 c6 3c 00 20 75 3c 64 c4 4a 3c 62 e0 1a bd
       0.024281368 0.014961243 0.012375925 -0.037811644
000310 74 de 36 bc c5 19 87 bc 25 dc 04 bd 94 f8 86 bc
       -0.011161435 -0.01649178 -0.03243651 -0.016475953
000320 4c e0 4a bc ce b4 9d 3e 40 9c 88 3c e8 57 4a 3e
       -0.012382578 0.30802006 0.016676068 0.19760096
000330 35 2c 8b 3c 14 29 8f 3d cd 56 0d 3e cd 0e 4e 3d
       0.016988853 0.06990257 0.13802643 0.050307084
000340 1a c4 6d 3d e9 25 dc bd 0e 3e 8b 3e e7 1c 36 3e
       0.058048345 -0.10749418 0.2719578 0.17784463
000350 99 95 06 bd cc b3 e7 bd fe 21 2e bc ec 9b 5a 3e
       -0.03285751 -0.113135904 -0.010628222 0.21348542
000360 87 e5 83 3e 82 43 39 3c 45 b8 62 3c 6e 91 21 3e
       0.25761053 0.011307599 0.013837879 0.15778133
000370 d4 b5 a5 3e 57 9d f1 3e 52 6f 93 bc c0 c6 a8 3d
       0.32365286 0.47190353 -0.017997418 0.082410336
000380 ab 58 32 3d a2 0a e1 bd 22 67 ba 3e 4d 5d 0a be
       0.04354159 -0.10988356 0.3640681 -0.13512154
000390 de 24 b5 bd 35 40 d1 bd c4 f2 16 3e 38 c9 38 3e
       -0.088449225 -0.10217325 0.14741045 0.18045509
0003a0 d9 28 56 3c fa 63 61 bd 8e d5 8e 3e 10 c5 b6 3e
       0.013071262 -0.055026986 0.27897304 0.35697222
0003b0 61 32 6d 3e eb 3a ed bd 41 3b df bd f1 ed 0c 3d
       0.2316375 -0.11583503 -0.10899974 0.034406606
0003c0 35 d6 3a bb 8a 3e bf bc 3b b6 97 3b 14 57 2f bc
       -0.0028509025 -0.02334525 0.004629878 -0.010701913
0003d0 30 3f 21 3c ff 6e 14 bd 05 21 74 bc a7 d6 3e bb
       0.009841725 -0.036238667 -0.014900451 -0.0029119642
0003e0 cc bb 6b 3c 54 91 a9 bb 63 28 80 bc c9 30 56 bc
       0.014388036 -0.005174795 -0.015644258 -0.013073155
0003f0 21 3f d2 3b fb 94 61 bb 8b 87 2d 3c 2c d6 d3 bc
       0.006416217 -0.0034421075 0.010591398 -0.025858961

enc_zt3.bias f4 [20]
000000 60 3a 26 be f5 46 9a bd 30 41 2f be 3c a1 99 3e
       -0.16233206 -0.07533065 -0.17114711 0.30005825
000010 fe 6d bb 3d b5 35 aa 3e 8a b0 84 3e 1b 52 b6 bd
       0.09151839 0.332441 0.2591594 -0.08902379
000020 79 9a ec 3e 34 56 d2 bd 71 de 9e bb ad 73 44 3e
       0.46211603 -0.10270348 -0.0048482944 0.19184752
000030 ad 42 49 be 4f 61 9b 3e c2 2a 14 be 30 2c 76 3d
       -0.19654341 0.30347678 -0.14469436 0.060100734
000040 02 b1 86 bd 7c ac cf 3e 62 47 d2 3e 6f 34 e0 3e
       -0.0657673 0.40561283 0.41070086 0.43790004

mu_zt.weight f4 [2, 20]
000000 20 35 26 3c 50 95 80 bd 29 f2 57 3c be c2 ae be
       0.010144502 -0.06278479 0.013180294 -0.34132951
000010 21 8c 58 3e 91 c4 ca be c2 62 c1 be 17 c5 b6 3e
       0.21147205 -0.39603093 -0.3777066 0.35697243
000020 22 9f ce be 98 b5 3e 3c 84 f9 83 3e a9 0f b0 3e
       -0.40355784 0.011639975 0.25776303 0.34386948
000030 df 76 06 bd 4b a8 d8 be f2 86 06 bc 55 76 b0 3e
       -0.032828208 -0.42315897 -0.008210884 0.3446528
000040 7e ef 27 3d df a8 da be ba d9 c3 be 89 ff bf be
       0.040999882 -0.42706963 -0.3825205 -0.37499645
000050 3e f1 eb bc e0 85 c4 3c 89 f1 1f 3b 82 8c 1c be
       -0.028801557 0.023989618 0.002440544 -0.15287974
000060 cb a2 52 3f 6b a4 99 bd 72 c4 82 be f7 41 f1 3e
       0.8227965 -0.07502063 -0.255405 0.4712064
000070 b8 0f 68 be f4 e3 16 bc e7 c6 d8 3e 06 9c 0b 3f
       -0.22662246 -0.009209622 0.4233925 0.5453495
000080 a0 11 b6 bb b4 1e 64 be 72 9d 1b bc 98 15 d5 3e
       -0.0055563003 -0.22277337 -0.009497987 0.41618037
000090 8d aa 92 3c 15 af 5e be 7e 28 02 be 8d f0 3c be
       0.01790359 -0.21746476 -0.12710759 -0.18451138

mu_zt.bias f4 [2]
000000 c5 5f 9a be ab 2e a3 3d
       -0.3015119 0.079678856

log_var_zt.weight f4 [2, 20]
000000 4d 9e a4 3d e3 3a e2 bd 21 3f 63 be 95 69 b5 bc
       0.08038006 -0.11046388 -0.2219205 -0.022145072
000010 6b a9 8c be 0a 47 e6 bd 78 64 34 3d 00 55 f1 bd
       -0.27473006 -0.112440184 0.044041127 -0.117837906
000020 ac 8e 61 be 44 d1 17 3d 9b 41 9c be cc c6 6f be
       -0.22027081 0.037064806 -0.30518803 -0.23415679
000030 7c 85 64 be a4 a6 9d be bc 03 92 bc 6a cd 8c 3d
       -0.22316545 -0.307912 -0.017824046 0.06875117
000040 1f 54 10 be e3 cf aa bd b2 ea 37 bc f0 ef a3 bd
       -0.1409459 -0.083404325 -0.011225389 -0.08004749
000050 7c 35 46 bc 05 76 26 3e 03 e7 59 be 4c f3 a4 3d
       -0.012097713 0.16255958 -0.2127953 0.08054218
000060 a0 d9 e4 3d da 25 5e 3c 38 15 70 3d 83 2f 22 bd
       0.11174321 0.013558829 0.058613986 -0.039596092
000070 d3 86 9c be 35 7b 10 be 86 48 ac be 8f 78 6b be
       -0.30571613 -0.141095 -0.3364908 -0.22995208
000080 a4 09 4c be 5f b0 22 3d e8 aa c7 3d 9d 9b e1 bd
       -0.19925553 0.03971898 0.09749395 -0.11016009
000090 cf 65 be ba 9e b2 cc bd ef aa e8 bd 32 ae 57 3d
       -0.0014526191 -0.09995006 -0.11360728 0.05265636

log_var_zt.bias f4 [2]
000000 c2 97 43 bd da 37 a5 be
       -0.04775215 -0.32269174

prior_zt1.weight f4 [20, 6]
000000 ac 4d dd 3e 84 82 8f be 34 51 7d 3d 15 5e c3 3e
       0.4322332 -0.28029263 0.06184502 0.38157716
000010 98 cc 18 be 9b b0 42 be 59 b3 91 3e 38 9c 1e bf
       -0.14921796 -0.19012682 0.28457144 -0.6195712
000020 8a a8 bd 3e 88 ec 48 3e fd 74 83 be 51 44 a2 be
       0.37042648 0.1962148 -0.25675192 -0.31692746
000030 ca ef 0e 3e b9 9a ff bc f8 3e a0 3d a7 66 bb 3d
       0.1395866 -0.031201707 0.0782451 0.09150439
000040 84 b7 e8 3e c6 53 85 be 8d 87 46 3e 07 d7 f7 be
       0.4545251 -0.26040477 0.19387646 -0.4840624
000050 7d e4 2a bd 81 53 a5 be 80 43 de bd 70 38 97 be
       -0.04172181 -0.3229027 -0.10852718 -0.29535246
000060 aa 85 42 3e 1a e8 eb be cb 8e 17 be 11 57 a3 3e
       0.18996301 -0.46075517 -0.14800565 0.31902364
000070 c5 bd 14 be 39 4c ee be b8 a7 45 3c 82 96 a5 be
       -0.14525516 -0.46542528 0.012063913 -0.3234139
000080 63 9f a9 be e3 fc 14 be 7f d5 25 be 91 97 88 be
       -0.33129415 -0.14549594 -0.16194724 -0.26678136
000090 ec ed 56 3e 19 44 61 bd 9a 21 77 3e 63 cf c0 be
       0.20989197 -0.054996584 0.24133912 -0.37658224
0000a0 b4 ca b9 3e bc 62 0a 3e 54 cb 01 bd 04 6c f3 3d
       0.36287463 0.13514227 -0.03168805 0.11885837
0000b0 a1 53 8a 3e 2d 3b e6 bc 0c b9 18 3d 81 4c 9f be
       0.2701693 -0.02810439 0.03728585 -0.31113055
0000c0 77 5b 96 bd 78 59 8f bd 62 7a b4 bd 51 cd 12 3d
       -0.07341664 -0.06999487 -0.08812405 0.035840336
0000d0 a0 30 56 be af 2f 22 3e 37 2d f2 3b 74 e4 13 bf
       -0.20916986 0.15838502 0.007390644 -0.57770467
0000e0 0e c4 f4 3e db 43 f3 bd 8f 95 14 3d 5c 2c 2b bf
       0.47805828 -0.11878177 0.036275443 -0.6686456
0000f0 a2 f1 d5 3e dc dc de 3d d8 9b 06 be c5 a7 04 be
       0.41785914 0.10881969 -0.13145387 -0.12954624
000100 00 83 72 3d 0e 9b e4 3d e4 7c cd 3b bd e8 ef 3e
       0.059206963 0.11162387 0.0062709916 0.46857253
000110 a9 c2 91 be be d5 0f bd a3 0e fb 3e b0 81 0e 3f
       -0.28468826 -0.03511595 0.49034604 0.5566664
000120 50 8c 1b be 45 34 f9 3e 8b 5b 21 3e bf d4 8e 3e
       -0.15190244 0.4867269 0.15757577 0.27896687
000130 4e af 88 3d 61 de 39 3e 7b 47 a0 be 85 80 d4 bc
       0.06674062 0.18151237 -0.31304535 -0.02594019
000140 b5 1c 84 3d 66 d7 03 be da 6a 03 bf 13 85 b8 3e
       0.06450788 -0.12875137 -0.5133492 0.36039028
000150 2a e1 a4 3d 62 5d 20 3e 6b ff 2d be 3a 90 a9 3e
       0.08050759 0.15660623 -0.16991965 0.3311785
000160 35 82 1a be 21 c3 95 3e 14 36 93 3d ed bf 92 be
       -0.15088733 0.29250434 0.07188049 -0.28662053
000170 4e 03 36 be c7 e4 bc bd de c4 2a bd 47 e8 98 be
       -0.17774698 -0.09223323 -0.041691653 -0.29864714
000180 de d0 97 3e 33 a5 d5 be 6b ba b0 3e cf a2 aa 3e
       0.2965154 -0.417276 0.34517226 0.33327338
000190 41 23 b3 3e 82 1a ed bd 8a 2a 88 bd 75 4d 07 be
       0.34987834 -0.115773216 -0.06648739 -0.13213141
0001a0 08 ca 62 3c ab 17 b6 bd 4b 6e 70 be 59 04 82 be
       0.013842113 -0.08891233 -0.23479573 -0.25393942
0001b0 0d 58 ed 3d 2b 50 cf bd ca 33 59 3c 13 8b 41 bd
       0.1158906 -0.10122713 0.013256976 -0.047251772
0001c0 d6 67 96 bd 92 8f c9 be f2 af 2c be be c2 58 3e
       -0.07344024 -0.39367348 -0.16863993 0.21168038
0001d0 df cf e3 3e 4b 2e 1d bf d9 da 96 be c6 64 4b be
       0.4449453 -0.6139876 -0.29463843 -0.19862661

prior_zt1.bias f4 [20]
000000 7c fa cf be bf 7b c2 3e 8c 3f b8 be 9f 9b b3 3e
       -0.40620792 0.37985036 -0.35985982 0.35079667
000010 54 59 fa bc 46 e8 3c be f3 99 f6 3c ab be 49 3f
       -0.030560173 -0.1844798 0.030102706 0.7880656
000020 d2 16 e5 3e 58 31 9d 3d b5 9b 94 3e 71 8e 62 3e
       0.44743973 0.07675427 0.29025045 0.2212465
000030 72 61 aa be 3b e6 c5 3e 01 f7 e4 3e 71 38 95 3e
       -0.3327747 0.38652214 0.447197 0.29144624
000040 c2 fa 05 be a6 5c 25 3f 9a b7 09 3f b4 77 22 be
       -0.13083938 0.64594495 0.5379578 -0.15865976
